models/data.pth (torch, 29041 bytes, 6 tensors)

l1.weight f4 [8, 395]
00000000: 1047 a6bc 1ee7 4e3e faac 00be fb5c e9be
00000010: ce6d 44bd 9426 423e d17a a43e 4ccf 5dbe
00000020: aa04 1bbe 1cf1 2c3e 52f2 b5be 486c cd3b
00000030: d24e 5ebe b767 63be 840e a5bc f93a c63e
00000040: fe19 003f 2684 d93e 256d 06be 7899 e13d
00000050: 3a0f 7bbe 76fe efbe 9299 933f 7e21 a03c
00000060: 90ce d4bc 32e0 303e 5b34 a13e 7380 92be
00000070: 1a4a c33e 74bb 1c3f 3198 c5bc 9e81 333e
00000080: c054 4bbe 7a5c 84be 3008 443a 07ab d43d
00000090: 5c3a 723e 5f08 e73d 355b 98be 669f 113e
000000a0: 6d9e b3bc 46d2 633e 2778 36bf 728e b3be
000000b0: 3ee6 a73e 5587 47bf 65f9 16bf 88e2 f6be
000000c0: 7065 343d 1de3 a3be e9f4 963d e22d 0dbe
000000d0: 95e0 52bf 48ed a33e 20c1 3b3d 0931 ba3d
000000e0: 1242 c6bc c06b 633f 81b9 2db9 266d c83e
000000f0: dd66 913d 4da2 993b 0ae4 17be 0f1e a83d
00000100: 1eec 32be 8261 e6bd b1c0 94be ff63 98be
00000110: cd62 0f3f 00e3 223e a3c5 783e 80f8 d0be
00000120: 9be3 ae3e 3d46 f13e 7b5e 2c3d c58c c1bd
00000130: ed3d 5a3c 265f 583e 2682 4fbe c259 b03e
00000140: 5378 24bf d2f8 e83e 3a48 42be cfdd db3e
00000150: 1712 693d 6a7d 59bd ff71 20be 1652 04be
00000160: 0c5f 30bf 55c8 26bf cd00 debc 92f7 9fbd
00000170: d717 aabd 8173 313e 4b2d b73e 0559 173f
00000180: f43b 823c 137a 7f3e 17b7 c5bd 360b e13e
00000190: eb8d 3d3e c01e 7c3f ddd1 acbe 4420 6d3f
000001a0: 9ec6 4b3c 9d64 a9bd 4ed1 25be 17d0 fc3d
000001b0: 69f3 edbd e77b 21bf 5381 3cbe d9f3 a0be
000001c0: a396 873e 42de 8dbe dec9 b2bd ab84 f6be
000001d0: 7638 2f3f cf30 693d d862 503e 17fa 373e
000001e0: 853c af3c 37d8 3b3e d333 1cbd 03a1 e23e
000001f0: 80b3 68be 928c 7abe 044a 13be f3d1 51bd
00000200: 72d7 fc3d 8282 953e 4833 253e 4645 963b
00000210: 3406 1c3e 057c b83d 4670 cf3e 1d14 953e
00000220: 2190 1dbe 5776 b2be 11d6 f9bc 7939 c63e
00000230: 4065 d0bd 1d79 bf3d be2a 3a3e 31a8 333d
00000240: 2f5a adbe 5f4d a03e 2644 aebe 3541 afbe
00000250: 0175 b9bd 1029 c9bd 9754 033f 8169 323e
00000260: c17f 793e e14b 5ebf 365a 6e3e 651e c53e
00000270: 6d6d 47bf 916c 413e a92a 87be 34ab 003f
00000280: 5b79 863e e1da 14bf e210 27bf 520a b73d
00000290: 9ffe 683f 944c 333e 99f8 d93e e637 d43d
000002a0: 5218 96be d7ce adbe 4a66 3dbe 4ef5 05be
000002b0: 3fee 893e 2c14 81be 9bdc a4be f77c e3bd
000002c0: 8375 493e 5664 c6be 2054 3ebf bd10 283e
000002d0: 13fc 803f a64b 593f 6573 81be 9470 403e
000002e0: bbf7 7dbd e926 8b3e 9c80 acbe 1417 4dbe
000002f0: 21f7 7d3b 4ac8 d43e 4a18 8e3e 9a73 f0bd
00000300: 7aa4 c23e b3dd 003d 5ff7 103d 794e 3cbf
00000310: 6ca9 c03d 75dd 723e 772e 453e c967 b43d
00000320: 5c08 22bc effc 643e 6ef0 363f cebb 99be
00000330: ea41 373e f56c 723e 14e1 363e 7062 e73e
00000340: cbca 52be cd29 5fbf 2746 173f fda4 f33e
00000350: b178 a9be d927 8a3e 3bac 843e 6e6d 573f
00000360: c633 0f3e 6bd1 803f e0c1 e73e 7e25 cdbf
00000370: 1a16 20bf 0878 26bf fd31 acbf 6114 7c3d
00000380: d59a a6bc 5ebd 79be cf3c 0c3e 079c cc3d
00000390: ef64 6a3d 8ddc 6e3f 3f69 7a3e 568d 063d
000003a0: 88eb ff3e f6bb 9a3d 8184 3cbe 33cb 373b
000003b0: ee82 b2be 1f43 0ebd 1509 903e 62c5 a93e
000003c0: 9eb1 333e 4e7d c73e 06c6 76bf 9ce1 103e
000003d0: 93ea 57be e234 c6bd 6da8 dc3e 39a6 57be
000003e0: c926 533e 243a 68be faa4 4e3e ac7d 703f
000003f0: abab 693d 58a3 4d3f 912e 513f febc 66be
-0.020297557 0.20205352 -0.12565985 -0.4557875 -0.04795628 0.18960029 0.3212495 -0.21661109
-0.15138498 0.16888851 -0.35536438 0.0062690116 -0.21709755 -0.22207533 -0.020148523 0.38716868
0.5003966 0.42483634 -0.13127573 0.110156 -0.24517527 -0.46873826 1.1531241 0.01954722
-0.025977403 0.17273024 0.31485257 -0.28613624 0.38142473 0.6122353 -0.024120422 0.17529914
-0.19856548 -0.25851804 0.00074780267 0.103841834 0.23655075 0.112808935 -0.29757085 0.14220962
-0.02192613 0.22248182 -0.7127709 -0.35069615 0.32792848 -0.77940875 -0.58974296 -0.48219705
0.04404205 -0.3200921 0.07370932 -0.13787034 -0.82373935 0.3201697 0.045838475 0.09091384
-0.024201427 0.8883629 -0.00016567671 0.39145774 0.07099698 0.004688537 -0.14833084 0.08208858
-0.17472884 -0.11249067 -0.29053262 -0.2976379 0.56010133 0.15906906 0.24294142 -0.4081459
0.34158024 0.471239 0.04208229 -0.09450678 0.013320428 0.21130046 -0.20264491 0.3444348
-0.642461 0.45502335 -0.18972865 0.42942664 0.056902017 -0.05309812 -0.15668486 -0.12921938
-0.6889503 -0.6514943 -0.027099991 -0.07810892 -0.08305328 0.17329217 0.35776743 0.5912021
0.015897729 0.24948911 -0.09654062 0.43953866 0.18511169 0.9848442 -0.33753863 0.9262736
0.012437491 -0.082711436 -0.16193125 0.123443775 -0.116186924 -0.63079685 -0.18408708 -0.3143604
0.26482114 -0.27708632 -0.08729909 -0.48148093 0.6844553 0.056931313 0.20350206 0.17966495
0.021391163 0.18344198 -0.03813536 0.44263467 -0.22724724 -0.24467686 -0.14383703 -0.051225614
0.123457804 0.29201132 0.16132843 0.0045858948 0.15236741 0.0900803 0.40515345 0.29116908
-0.15387012 -0.3485591 -0.030497583 0.38715723 -0.10175562 0.093492724 0.18180367 0.04386157
-0.33857867 0.3130903 -0.34036368 -0.34229437 -0.0905552 -0.09822285 0.5130095 0.17423059
0.2436514 -0.8683453 0.232766 0.38499752 -0.77901345 0.18889071 -0.26399735 0.50261235
0.26264462 -0.5814648 -0.65260136 0.08937515 0.9101352 0.17509681 0.42572477 0.10362224
-0.2931543 -0.3394687 -0.18496051 -0.13081858 0.2693958 -0.25210702 -0.3219956 -0.111078195
0.19673733 -0.38748425 -0.74347115 0.16412635 1.0076927 0.84881055 -0.25283352 0.18792945
-0.062003832 0.27178124 -0.3369187 -0.20028335 0.0038752037 0.41559058 0.27752906 -0.11740799
0.3801611 0.03146143 0.03539216 -0.7355724 0.09407315 0.23717292 0.19256006 0.08808858
-0.009889688 0.22362112 0.71460617 -0.30026096 0.17896238 0.23674376 0.17859298 0.4519229
-0.20585172 -0.8717316 0.5909142 0.47586814 -0.33099893 0.26983526 0.2591265 0.8415135
0.13984594 1.0063909 0.45265102 -1.6027067 -0.62533724 -0.65026903 -1.3452755 0.061542872
-0.020337502 -0.24388644 0.13695072 0.09990697 0.057225164 0.93305284 0.2445421 0.032849632
0.49984384 0.07555382 -0.18409921 0.00280447 -0.34865516 -0.03473198 0.2813193 0.33158404
0.17548224 0.38962787 -0.9639591 0.14148563 -0.21085577 -0.09678055 0.4309725 -0.21059503
0.20620264 -0.22678429 0.20180121 0.9394176 0.05704848 0.8032737 0.8171168 -0.22533032

l1.bias f4 [8]
00000000: 16c1 f83f e6ad 0e40 6610 c03f ef91 873f
00000010: b42f 423f c241 993f f6a6 923f 0d08 443f
1.9433925 2.229364 1.5005004 1.059141 0.7585404 1.1973193 1.1457202 0.76574785

l2.weight f4 [8, 8]
00000000: b603 32bf 8d95 1c40 1c3a 143f fbc8 96c0
00000010: 57f3 8240 cf98 503e 3367 0b3f 3733 ad3f
00000020: d037 0940 6bc2 8dbf 4c55 0040 5ae9 263f
00000030: 3baf f6bf 5d4e c940 8413 38c0 f517 9fbf
00000040: 3934 f0bd 72d7 903f 3e8e e63f b8a7 023f
00000050: d715 e2bf 376a 19bf 2536 51bf bceb 0040
00000060: ec52 96be 41d1 35c0 3797 36bf e402 5e40
00000070: 0a2f 8940 50bb 0440 437a 6b40 f670 663f
00000080: 0282 dd40 5c37 4f3f e593 14c0 a7a2 113f
00000090: 3f6d cb3f d046 69c0 a3ca 29c0 600f 27bf
000000a0: 3e69 0cbf a5e2 60bf b370 0bbd b290 4e3f
000000b0: 4b67 203d e6ed cc3e 1a35 433f 22b7 de3d
000000c0: 9f5a f73f 2e63 6abf 5567 9040 3fb9 f6bf
000000d0: 4832 b8bf fe5b 09c0 1c6a 6940 8064 1040
000000e0: 3176 46c0 f900 d440 ca9d 6ebd 17e0 4c40
000000f0: 5926 c9bf 92c5 11bf 5b7f c2bd 9d15 a0bc
-0.6953691 2.4466279 0.5790117 -4.7120337 4.0922046 0.20370792 0.54454345 1.3531255
2.1440315 -1.1074957 2.005206 0.65199816 -1.9272226 6.290816 -2.8761911 -1.2429186
-0.11728711 1.1315749 1.8012159 0.5103717 -1.7662915 -0.59927696 -0.81723243 2.014388
-0.2936014 -2.8408968 -0.71324486 3.4689264 4.286992 2.0739326 3.6793373 0.90016115
6.92212 0.80943847 -2.3215268 0.5688881 1.5892714 -3.644947 -2.652993 -0.65257835
-0.54848087 -0.8784583 -0.034043025 0.8068954 0.039161008 0.40025252 0.762529 0.108747736
1.932453 -0.91557586 4.512614 -1.9275283 -1.4390345 -2.1462398 3.6471014 2.256134
-3.1009638 6.6251187 -0.058255948 3.2011774 -1.5714828 -0.56942093 -0.094969474 -0.019541556

l2.bias f4 [8]
00000000: 71f9 913e ce13 1c3f 07be 06bf adac 563d
00000010: fe31 693f f8b9 94be 3cb3 993f 0076 8a3f
0.2851062 0.6096772 -0.5263371 0.05241077 0.9109191 -0.29048133 1.2007823 1.0817261

l3.weight f4 [130, 8]
00000000: 9b63 2c3f 148e e93e 572b 423e ab00 4c3f
00000010: 93f0 d33e e971 9ebd e1a3 e5bf 76cc ddbe
00000020: e9dc 47bf 5e9a a53f 2ed1 b9be d9b0 513e
00000030: 0243 7b3f 2567 93bc cdc5 86bf 9918 a3bf
00000040: 414b e33e b723 88be d1b7 193e f2d0 9c3d
00000050: 4f4d 493f e30d 9abd 8c6d 473d 1f7d 4b3d
00000060: e779 893d 4f8d 26bf 8fc3 d9be 6601 ad3f
00000070: 5a7c c53e 5761 cbbc cd61 8abf 0bed b63e
00000080: a191 523f bc2d acbf 63bd 5abc facf 93bf
00000090: 0de6 77be f9f8 c43c bb1a babd 560c a33f
000000a0: 7fba 423f aa29 e0be 9b87 72bc ee4b 88be
000000b0: 8294 cebe a8f1 40be 86af 443f 6630 b33e
000000c0: a0e8 d4be b55d 003f a697 0cbf 1807 163e
000000d0: a471 ae3f b09e 4abc 0afa c2bf 3a06 53be
000000e0: ba53 16bf 679a e53f 922b 19bf db4d 673e
000000f0: 22a8 2dbf 51fc c7be 4f3f eebe b52b c4be
00000100: 8b40 9dbf 9e61 883f f8f2 d3bd fde8 673c
00000110: a494 673e 2a6d adbd 8576 67bf dc2a 353f
00000120: d574 743f 477b 00bf d135 6b3d f78f ae3f
00000130: 10cf e3be 1dd0 a7be d576 2dbf ba45 3fbe
00000140: 95a0 48be d4c8 d0bf a397 68be 36d8 603f
00000150: 4ac0 1bbf 8908 4f3e 3b8a 513f 4934 093f
00000160: 18cf 463f 3f86 49bf 7ccf 173e 5ee5 1abf
00000170: 2aca a9bf 263a 92bc c33e 9f3f 828a bd3d
00000180: ecfa 9e3f d85f 9abf b67d 85be 5c24 98be
00000190: 09c8 803d 3c55 143e 93f6 593f b8d8 dbbe
000001a0: 997d 2d3e d40a b9be a9d8 a5bd b31b 92bf
000001b0: 868f bb3f 77f3 573d 1cdb f8bd d243 f2bc
000001c0: 9800 1bbe 1bfb 26bf 0338 2a3f ec88 91bf
000001d0: a12b 7cbf 414c 99bd 72f5 923f 8958 2c3f
000001e0: 0417 d63d e7d1 c0be 9468 cabe 3e77 bd3f
000001f0: 0f07 acbf ce46 c93e b985 98be 5379 a33e
00000200: 48bb 7ebf 2511 823e c013 493e 0424 17bf
00000210: 862e 703e 5eaa 4bbd 1e28 e6be c5ac a23f
00000220: 8996 623e d5c0 cb3f d946 603d c627 4fbe
00000230: fc9d a1bf 67fd 223d 6466 87bd 6a52 61be
00000240: cb96 d63e 47ed 7f3e e19d 9abd 9d8c 27bf
00000250: ae94 a13f 3cae af3d 5a30 79bf e0e5 88bc
00000260: a4fc 9fbf e6d3 4dbe daa3 86bd 6ec9 493f
00000270: dfd4 8c3d 4836 863d 5b63 ce3e 9376 143f
00000280: d99c 91bf 67cd 073f d052 bcbe 6dc1 983f
00000290: 8bae 8f3e e70d 843e cfd2 0abe 8a95 92be
000002a0: 94b9 153f 7b40 34bf f716 5c3e dc8b 3d3f
000002b0: 20b8 b73c ef27 e63d d653 ed3e 237e 27be
000002c0: ffc7 b03e e75f 6abf 7c74 52bd d30c 39bf
000002d0: 8efb 413f 2ce1 83be 9c0d 993e 7e4c 1f3f
000002e0: a8bd c73e 69a1 a93f d786 04be a8fb 7fbf
000002f0: 6e5f 11bf ce51 3bbd e93a 2abf 17c4 073f
00000300: 02ce 563b c7a5 4ebf 627a 9abe cfb9 8dbe
00000310: 8e10 28be feef 913e 4483 62bf 9da5 da3f
00000320: c449 60be 7756 2f3f 2680 12bd 2178 85bf
00000330: 0254 b4bf 8a1e 263d dcf3 11be 9724 a73f
00000340: a6ce 6b3d 2fa1 3f3f 6fd9 c13e c876 9bbf
00000350: 1eae dd3e f12f 12be 1eea 143d 94d1 893e
00000360: 420c 7dbd 8a2d 8d3f 3f93 5ebe 1c76 9bbf
00000370: 9cc7 1e3f fc86 88be ef6b 87bf 4ecd d03e
00000380: f636 223f 7594 ddbf f832 903e ef6e ecbe
00000390: fc0c 32bd 02bf a93d e8b2 333f d2d2 053f
000003a0: e6cb 103f 4c95 75be d46a 803d 49cc 393f
000003b0: d0de 51bf 49ce c9be e76b 9b3d 2372 143f
000003c0: 2ba7 483f 3e96 3f3e 9ab9 84bd 26cb 7bbe
000003d0: 666e 5bbe 91f2 55bd b62a afbe 70b6 563f
000003e0: 1d9d 883b b926 8c3f 6024 aabe ec65 43be
000003f0: b817 2b3f 4f60 eabd 2aa7 c63d b133 abbf
0.67339486 0.4561621 0.18961845 0.7968852 0.4139448 -0.077365704 -1.7940637 -0.43320054
-0.7807146 1.2937734 -0.36292404 0.20477618 0.9814912 -0.01799352 -1.0529114 -1.2741882
0.44393352 -0.26589748 0.15011527 0.07657041 0.7863359 -0.0752218 0.048688456 0.04967987
0.06712704 -0.6505937 -0.42532012 1.3516052 0.38571435 -0.024826689 -1.0811096 0.35727724
0.8225346 -1.3451457 -0.013350817 -1.1547844 -0.24208851 0.0240445 -0.0908713 1.273814
0.7606582 -0.43781787 -0.014802839 -0.2662043 -0.40347677 -0.18842185 0.7683033 0.34997863
-0.4158373 0.50142986 -0.549189 0.14651144 1.362843 -0.012366936 -1.5232556 -0.20607844
-0.58721507 1.7937745 -0.5983211 0.22588293 -0.67834675 -0.3905969 -0.46532676 -0.38314596
-1.2285322 1.065479 -0.10349077 0.01415467 0.22615296 -0.08468087 -0.9041522 0.70768523
0.9549077 -0.50188106 0.05742437 1.3637685 -0.44493914 -0.32775965 -0.6775945 -0.18678942
-0.19592507 -1.6311288 -0.22714095 0.8782991 -0.60840285 0.202181 0.8185155 0.53595406
0.7765975 -0.7872047 0.14825243 -0.60506237 -1.326482 -0.017849993 1.2441028 0.09254934
1.2420325 -1.2060499 -0.26072472 -0.2971524 0.06288154 0.1448564 0.8514187 -0.4293878
0.16942443 -0.36141074 -0.08097965 -1.1414703 1.4653175 0.05272242 -0.12151167 -0.029573355
-0.15136945 -0.65226907 0.6649172 -1.136991 -0.9850407 -0.074852474 1.1481154 0.67322594
0.10453609 -0.37660143 -0.39532912 1.4802015 -1.3439654 0.39311832 -0.29789522 0.319285
-0.9950452 0.25403705 0.1963644 -0.5903933 0.23455247 -0.04972302 -0.44952482 1.2708975
0.22127737 1.5918223 0.054755066 -0.20230016 -1.2626338 0.039792445 -0.06611326 -0.22004095
0.4191192 0.24992858 -0.07549644 -0.65448934 1.2623498 0.085781544 -0.97339404 -0.016711175
-1.2498975 -0.20100364 -0.06574221 0.7882298 0.068765394 0.06553322 0.40310177 0.5799343
-1.1375991 0.53047794 -0.3678193 1.1934029 0.28062853 0.25791857 -0.1355698 -0.28629714
0.58486295 -0.7041089 0.21493135 0.74041533 0.022426665 0.112380855 0.46353024 -0.16356711
0.34527585 -0.91552585 -0.05138062 -0.72285193 0.75774467 -0.2575773 0.29893196 0.6222609
0.39011884 1.3252383 -0.12942062 -0.9999337 -0.5678624 -0.045732312 -0.6649614 0.53033584
0.0032776599 -0.80721706 -0.30171496 -0.27680823 -0.16412565 0.28503412 -0.88481545 1.7081791
-0.2190314 0.6849131 -0.035766743 -1.0427285 -1.4088137 0.040556468 -0.14253181 1.3058041
0.057570122 0.7485532 0.378612 -1.2145624 0.43296903 -0.142761 0.036356084 0.26917708
-0.061779268 1.1029522 -0.21735857 -1.2145419 0.6202333 -0.26665485 -1.0579814 0.40781635
0.63365114 -1.731093 0.28163886 -0.46178386 -0.043469414 0.08288385 0.70194864 0.5227481
0.56561124 -0.23982733 0.06270376 0.7257734 -0.8198061 -0.39415196 0.0758894 0.5798666
0.7838008 0.18709657 -0.06480713 -0.24589214 -0.21428832 -0.052233282 -0.34212273 0.8387213
0.00416912 1.0949317 -0.33230877 -0.19081849 0.66833067 -0.11444151 0.09699853 -1.337515

l3.bias f4 [130]
00000000: 5fba 88be d2bb 423e 4a00 69bd 7a5c 803e
00000010: 3b42 283d 37a3 293e 324a 9bbd 8d38 333f
00000020: bfa5 763e 7ec3 ca3d d268 823e c410 c1bd
00000030: 8b4b 533d fdb0 09be 9122 f83d a963 ac3d
00000040: 419a f23e fa57 ba3a a0d9 593e f710 543d
00000050: c761 813c 7730 adbe 58dc e13d 8727 0f3e
00000060: 05f4 b03e 6e69 923e 9332 b6bc 4371 13be
00000070: f438 b2bc 9b5e cfbd 3963 c2bd 8c02 053e
00000080: ec55 f63c b746 9c3e a84e 8e3d a6c4 a53b
00000090: 6b18 bbbd 95b1 a5bc e02c e83c 78be 64be
000000a0: dd28 72bd 6d15 fd3e 8617 2d3d f823 a5be
000000b0: 1b53 10be 55dc f7bc 44eb 003e ad20 afbd
000000c0: 3ae4 5bbe e816 433e 3587 25be 8234 b7bd
000000d0: 8f5d f83e 9659 263c 28f3 91bd d799 3b3d
000000e0: 6a28 183e 266a 743e 38cf 803b 6d3f 153e
000000f0: bfc7 a3bd 06ea 57be 919c 2fbd 3656 ecbd
00000100: 5b1a 4bbc 6497 023d fe2a 9bbd b595 5a3e
00000110: 0428 34bd 05c6 dcbe e4ec 34be d548 a3be
00000120: 1534 d33c 647b 39be 6455 81be 89f4 073e
00000130: 8f62 23bd bf61 0a3e 77ca 5bbd 7d93 9a3e
00000140: f89f 343e d3f3 5c3e 8bb9 bdbd 6ae1 3ebd
00000150: 0cc2 663e 156e c9bd 6a0e 1a3d d1f4 073e
00000160: 4b88 1dbe dfde 8fbe 390b bcbe 30df 303e
00000170: 0e73 debc cb87 0fbe efe7 06bf add4 54be
00000180: cc67 2a3d 129e a8be c863 95be 7edc 2e3e
00000190: 6370 a33e 75d9 5a3e 1fcd 93be bc87 de3c
000001a0: 6687 85be 352c 9b3d bd5f 963d f758 48be
000001b0: cbbe 283d c327 eebe 72ea 50be 1dba 7fbd
000001c0: b192 7ebe 6f2c 70be 72f2 c5be 5d86 6c3c
000001d0: 8ecf dabe aab7 58be fb97 87be 1aeb 67bd
000001e0: 2d3f 473f f481 b9bd 8db1 16be 0a1f bbbd
000001f0: bc6d fdbd b6f9 ce3b 503c a3bd 7305 63be
00000200: ddab fe3d 78f6 913d
-0.2670469 0.1901696 -0.05688504 0.25070554 0.041078787 0.16566168 -0.07582511 0.70008165
0.24086665 0.099005684 0.25470597 -0.09427026 0.051585715 -0.13446422 0.12115968 0.08417446
0.4738331 0.0014216893 0.21274424 0.05177399 0.015793694 -0.33826038 0.11028355 0.13979922
0.34561172 0.2859606 -0.022240913 -0.14398675 -0.021755673 -0.101254664 -0.094915815 0.12989253
0.030070268 0.305227 0.06948596 0.0050588427 -0.09135517 -0.02022628 0.02834171 -0.22338283
-0.059121 0.4943041 0.04225876 -0.32254004 -0.14094202 -0.03025643 0.12589747 -0.08551154
-0.2147378 0.19051707 -0.16164859 -0.08945562 0.4850888 0.010153195 -0.071264565 0.04580101
0.14859167 0.23868617 0.0039309524 0.14574976 -0.07997083 -0.21085367 -0.042873923 -0.11539881
-0.01239642 0.03188266 -0.075765595 0.21346171 -0.043983474 -0.43119827 -0.17668492 -0.31891504
0.02578167 -0.18113476 -0.2526046 0.13276877 -0.039888915 0.1351385 -0.053659882 0.3019065
0.17639148 0.21577387 -0.09263905 -0.04660169 0.2253496 -0.098354496 0.037611403 0.13276984
-0.15384023 -0.28099725 -0.36727312 0.1727264 -0.027154472 -0.14016645 -0.5269765 -0.20784254
0.041602895 -0.32933098 -0.2917769 0.17076299 0.31921682 0.21372016 -0.28867432 0.027164333
-0.26079863 0.07576791 0.073424794 -0.19565187 0.04119758 -0.4651471 -0.20401934 -0.06243335
-0.24860646 -0.2345445 -0.38661534 0.014436332 -0.42736477 -0.21163812 -0.2648314 -0.056620695
0.77830774 -0.0905799 -0.14716168 -0.091367796 -0.12374446 0.006316389 -0.07970488 -0.22170047
0.12435124 0.07127088
